Files already downloaded and verified
Files already downloaded and verified
Files already downloaded and verified
=> creating model 'resnet'
True
=> loading checkpoint './runs/cifar10_resnet18_2_4/model_best.pth.tar'
=> loaded checkpoint './runs/cifar10_resnet18_2_4/model_best.pth.tar'
the number of model parameters: 127642
total bn layer: 10
replaced: bn
replaced: bn
replaced: bn
replaced: bn
replaced: bn
replaced: bn
replaced: bn
replaced: bn
replaced: bn
replaced: bn
DataParallel(
  (module): ResNet(
    (conv1): Conv2d(3, 16, kernel_size=(3, 3), stride=(1, 1), padding=(1, 1), bias=False)
    (bn1): dnnrepair_BatchNorm2d(16, eps=1e-05, momentum=0.19, affine=True, track_running_stats=True)
    (relu): ReLU(inplace=True)
    (layer1): Sequential(
      (0): Bottleneck(
        (conv1): Conv2d(16, 16, kernel_size=(1, 1), stride=(1, 1), bias=False)
        (bn1): dnnrepair_BatchNorm2d(16, eps=1e-05, momentum=0.19, affine=True, track_running_stats=True)
        (conv2): Conv2d(16, 16, kernel_size=(3, 3), stride=(1, 1), padding=(1, 1), bias=False)
        (bn2): dnnrepair_BatchNorm2d(16, eps=1e-05, momentum=0.19, affine=True, track_running_stats=True)
        (conv3): Conv2d(16, 64, kernel_size=(1, 1), stride=(1, 1), bias=False)
        (bn3): dnnrepair_BatchNorm2d(64, eps=1e-05, momentum=0.19, affine=True, track_running_stats=True)
        (relu): ReLU(inplace=True)
        (downsample): Sequential(
          (0): Conv2d(16, 64, kernel_size=(1, 1), stride=(1, 1), bias=False)
          (1): BatchNorm2d(64, eps=1e-05, momentum=0.1, affine=True, track_running_stats=True)
        )
      )
    )
    (layer2): Sequential(
      (0): Bottleneck(
        (conv1): Conv2d(64, 32, kernel_size=(1, 1), stride=(1, 1), bias=False)
        (bn1): dnnrepair_BatchNorm2d(32, eps=1e-05, momentum=0.19, affine=True, track_running_stats=True)
        (conv2): Conv2d(32, 32, kernel_size=(3, 3), stride=(2, 2), padding=(1, 1), bias=False)
        (bn2): dnnrepair_BatchNorm2d(32, eps=1e-05, momentum=0.19, affine=True, track_running_stats=True)
        (conv3): Conv2d(32, 128, kernel_size=(1, 1), stride=(1, 1), bias=False)
        (bn3): dnnrepair_BatchNorm2d(128, eps=1e-05, momentum=0.19, affine=True, track_running_stats=True)
        (relu): ReLU(inplace=True)
        (downsample): Sequential(
          (0): Conv2d(64, 128, kernel_size=(1, 1), stride=(2, 2), bias=False)
          (1): BatchNorm2d(128, eps=1e-05, momentum=0.1, affine=True, track_running_stats=True)
        )
      )
    )
    (layer3): Sequential(
      (0): Bottleneck(
        (conv1): Conv2d(128, 64, kernel_size=(1, 1), stride=(1, 1), bias=False)
        (bn1): dnnrepair_BatchNorm2d(64, eps=1e-05, momentum=0.19, affine=True, track_running_stats=True)
        (conv2): Conv2d(64, 64, kernel_size=(3, 3), stride=(2, 2), padding=(1, 1), bias=False)
        (bn2): dnnrepair_BatchNorm2d(64, eps=1e-05, momentum=0.19, affine=True, track_running_stats=True)
        (conv3): Conv2d(64, 256, kernel_size=(1, 1), stride=(1, 1), bias=False)
        (bn3): dnnrepair_BatchNorm2d(256, eps=1e-05, momentum=0.19, affine=True, track_running_stats=True)
        (relu): ReLU(inplace=True)
        (downsample): Sequential(
          (0): Conv2d(128, 256, kernel_size=(1, 1), stride=(2, 2), bias=False)
          (1): BatchNorm2d(256, eps=1e-05, momentum=0.1, affine=True, track_running_stats=True)
        )
      )
    )
    (avgpool): AvgPool2d(kernel_size=8, stride=8, padding=0)
    (fc): Linear(in_features=256, out_features=10, bias=True)
  )
)
------------------------------------------------------
previous running mean: tensor([… device='cuda:0')
weighted mean: tensor([… device='cuda:0', grad_fn=<MeanBackward1>) * 0.4736842105263158tensor([… device='cuda:0', grad_fn=<MeanBackward1>) * 0.5263157894736842
0.19 *  weighted mean + (1 - 0.19) * previous running mean
both forward running mean: tensor([… device='cuda:0')
…
